articles/static/example-text/L_fastTopics.safetensors (safetensors, 99392 bytes, 1 tensors)

L f4 [2483, 10]
000000 a0 cf b8 3b eb 71 4e 2f 62 9c 31 3c b3 37 f2 3d
       0.005639985 1.8776063e-10 0.010840507 0.1182703
000010 2e 5e 99 3e 81 57 55 2f 8e bf 6e 3c ca fa 4a 3d
       0.29954666 1.9403325e-10 0.014572037 0.049555577
000020 0a c4 65 2f 37 67 00 3f 13 24 80 2e 4f e6 85 2e
       2.0897076e-10 0.50157493 5.827174e-11 6.089051e-11
000030 7b 18 66 3c cd b9 dd 3d 6b ff 16 3f 76 5f 8a 2e
       0.014043923 0.10826454 0.58983487 6.292471e-11
000040 de fa b0 3a e1 15 7e 3e 35 30 1d 3d 1a 7f 9a 2e
       0.0013502499 0.24813034 0.038376052 7.025687e-11
000050 d0 8e 01 2f 59 61 07 2f 92 60 18 2f 68 82 6b 3c
       1.1783219e-10 1.2312763e-10 1.3858628e-10 0.014374353
000060 8c 7e d1 3e 07 a9 42 3b 70 0b 24 2f cb 00 91 3e
       0.4091686 0.00297028 1.4919777e-10 0.28320917
000070 5f ac 16 2f 43 9f 94 3e f5 85 b1 2e 53 80 b9 2e
       1.3703659e-10 0.29027757 8.072824e-11 8.435621e-11
000080 ca 27 a4 3d fd 8b d2 3c d6 f3 e7 3e c2 6a 21 3e
       0.08015402 0.025701517 0.4530322 0.15763381
000090 27 c7 e0 2e ea f6 4c 3e c8 74 ce 2e 87 a2 aa 3d
       1.0221717e-10 0.20016065 9.38854e-11 0.08331781
0000a0 43 67 79 2e 4c 4e 82 2e 72 71 64 3c bb 68 69 2e
       5.670776e-11 5.925624e-11 0.013943063 5.3071086e-11
0000b0 57 89 f5 3e b7 a8 86 2e 56 e5 9d 2e b2 64 e0 3d
       0.47956344 6.123584e-11 7.180272e-11 0.10956706
0000c0 93 06 91 2e f1 39 cb 3e 05 f4 0f 2f 2b 6c 16 2f
       6.5950044e-11 0.39692643 1.3092467e-10 1.368085e-10
0000d0 4e b1 a6 3b b2 b8 06 2f bc 17 0f 3d 82 f6 90 3c
       0.0050870543 1.2252846e-10 0.034934744 0.01769567
0000e0 9b 45 36 2f c7 b4 1c 3f ee 9a 36 3e ab 77 1b 3e
       1.6577532e-10 0.61213344 0.17832538 0.15182368
0000f0 49 76 80 3c 01 f7 97 2e c5 71 5e 3f 51 1a 88 2e
       0.015681403 6.910562e-11 0.8689235 6.189239e-11
000100 74 47 86 39 fb 12 0d 3d 38 31 42 3c 01 01 af 2e
       0.00025611708 0.03444193 0.011852555 7.958257e-11
000110 5d fe 8c 3d 2f 57 af 2e 47 e6 d0 2e d1 80 20 3b
       0.068844534 7.9735656e-11 9.4996504e-11 0.0024490843
000120 8b b1 f5 2e b6 80 c3 2e df 99 bd 3b 7d 94 e1 2e
       1.1172848e-10 8.890437e-11 0.005786165 1.0258192e-10
000130 ca 40 04 2f 6e aa 38 3f 37 f2 f2 2e bb 73 8a 3e
       1.2028348e-10 0.72135055 1.1047912e-10 0.2704142
000140 22 1d 99 2e ac fe 9f 2e 63 16 79 3f 6b 4b 8f 2e
       6.9628095e-11 7.275722e-11 0.97299784 6.516284e-11
000150 d9 58 dc 3c 01 57 a5 2e f6 de c1 2e f4 d0 da 38
       0.026897835 7.518786e-11 8.81623e-11 0.000104339706
000160 84 11 b2 2e 10 9b b8 2e 13 40 ba 3c bc 82 6b 3b
       8.097614e-11 8.394896e-11 0.022735631 0.0035936078
000170 9d 60 ed 3e 01 5f c0 2e 62 ec ca 2e 83 b1 6d 3e
       0.46362773 8.748025e-11 9.2278865e-11 0.23212247
000180 e3 66 88 3c dc 5a f7 2e 7e ad c3 3d 9a b3 29 3e
       0.016650623 1.12483994e-10 0.095545754 0.16572419
000190 39 5e 13 3c 99 64 97 2e a7 90 2d 3e 32 97 87 2e
       0.008994632 6.884555e-11 0.16949712 6.165947e-11
0001a0 37 9b 03 3f 9a 2b 8a 3e 9e d5 19 3d 67 58 ae 2e
       0.51408714 0.2698639 0.037557237 7.928307e-11
0001b0 b0 7e a8 2e 42 ae ae 2e c4 01 60 2e ea 12 6a 2e
       7.66226e-11 7.943558e-11 5.093327e-11 5.322224e-11
0001c0 cf c7 65 3f 2d a4 51 2e 04 93 9d 3b cb e4 71 2e
       0.8975801 4.7666916e-11 0.0048087854 5.5000265e-11
0001d0 46 d1 8d 2e 59 e8 c7 3d 04 42 82 2e 38 0a 87 2e
       6.449112e-11 0.09761114 5.923442e-11 6.1409045e-11
0001e0 2f 46 85 2e 79 43 8b 2e 82 bf 9c 2e 54 91 95 3c
       6.060607e-11 6.332974e-11 7.128077e-11 0.018257774
0001f0 c5 f5 2d 3f 80 ea 8f 2e 0d c0 a8 2e ac 2d 90 3e
       0.6795314 6.544543e-11 7.6738706e-11 0.28159845
000200 56 db a8 3c 7e af a0 2e 31 61 16 2f 47 23 1d 2f
       0.0206124 7.307131e-11 1.367695e-10 1.42916e-10
000210 cd dd 30 2f 8e 61 37 3c 9d 14 07 3f 2c 63 22 2f
       1.6085906e-10 0.011192692 0.5276583 1.4769047e-10
000220 b4 68 3e 2f 0c f6 34 2f 80 e3 2e 2f ba 1b ec 3e
       1.7317597e-10 1.6458318e-10 1.5906032e-10 0.46114904
000230 50 58 e5 2e e1 a6 ef 2e 10 4e 4c 3c 9a c3 9a 3a
       1.0429402e-10 1.0898105e-10 0.012469783 0.0011807561
000240 01 69 4c 3d 64 7c 19 3f 80 54 fe 3a 0c e5 9f 3e
       0.049904827 0.5995543 0.0019403845 0.31229436
000250 a6 5c 05 2f 24 98 b9 3c cf 48 94 3b 88 00 ca 2e
       1.2129195e-10 0.022655554 0.004525281 9.185991e-11
000260 11 3b 4d 3f ca ea b4 2e 97 a5 2d 3e 1f c0 d0 2e
       0.80168253 8.227159e-11 0.16957699 9.4928725e-11
000270 c3 c5 f4 2e ed 5e c6 3c 2b d2 e0 2e 1c 13 e9 2e
       1.1130965e-10 0.024215186 1.0223674e-10 1.0599008e-10
000280 18 8f 21 2f 38 63 51 3c 72 d8 8e 3e a9 d3 8d 3e
       1.4693702e-10 0.012780003 0.2789951 0.27700546
000290 12 67 90 3d 98 75 2e 2f 69 90 4c 2f 57 82 78 3b
       0.07050909 1.5866986e-10 1.8604997e-10 0.0037919485
0002a0 e7 aa 32 3d a5 68 a0 3e 89 5c b0 2e c2 4c 12 3d
       0.043620016 0.31329837 8.019991e-11 0.035717733
0002b0 ab 6c cf 2e 28 0d a5 2e b5 3c d7 3e db cf 27 3e
       9.4325735e-11 7.505668e-11 0.42038503 0.16387884
0002c0 90 4e df 2e fc 34 0c 3d e3 1a cd 2e 26 0b b1 3e
       1.01548214e-10 0.034230217 9.327097e-11 0.34578818
0002d0 13 2f 34 3d de 3e 02 2f 0f 99 12 2f 18 4d e9 2e
       0.043990206 1.1845766e-10 1.3333e-10 1.0609308e-10
0002e0 28 a6 19 3f d2 8f 9b 3c a4 d2 1d 2f e8 fd 15 2f
       0.6001916 0.018989477 1.4353901e-10 1.3641677e-10
0002f0 67 f5 10 2f d0 74 ac 3e ff 19 31 3c 94 2b 0a 2f
       1.3183908e-10 0.3368287 0.010809421 1.2566509e-10
000300 37 e6 19 3f 54 7c f5 3d fd f3 df 3d 42 c9 0e 2f
       0.60116905 0.11986604 0.10935209 1.2986326e-10
000310 26 74 bf 3b 7e 11 09 3d 81 85 af 3c 53 d9 c8 3d
       0.0058427034 0.033463947 0.021425964 0.09807076
000320 a7 a3 89 3b 54 5e bd 2e 84 a0 2f 3e 2c 9a a9 2e
       0.004200417 8.611481e-11 0.17151076 7.712617e-11
000330 24 31 51 3f df b1 c3 2e c6 76 e5 2e d6 b9 e9 3b
       0.8171561 8.8991696e-11 1.0434813e-10 0.007132749
000340 9f c2 d2 2e 69 7f da 2e d0 96 1b 2f d5 94 22 2f
       9.584266e-11 9.936125e-11 1.4150747e-10 1.478669e-10
000350 7f 72 24 3b c5 12 2e 3d 94 d2 28 3f 80 14 f8 3b
       0.002509266 0.04249837 0.65946317 0.007570803
000360 37 74 bf 3a e0 3a 3b 2f 12 88 24 3d a5 3d 7c 3e
       0.0014606778 1.7028468e-10 0.04016883 0.2463289
000370 02 50 9e 3c f3 d6 18 3d b9 01 80 2f eb b6 4b 2f
       0.01932526 0.037314367 2.3284288e-10 1.8527728e-10
000380 33 92 53 3d 1d 0e 6b 2f e3 ce 89 2f d2 f0 d9 3e
       0.0516531 2.137814e-10 2.5067157e-10 0.42566544
000390 93 26 7d 2f 09 9d ee 3e 29 1c a8 2e 3b aa af 2e
       2.302392e-10 0.46604183 7.644758e-11 7.9883176e-11
0003a0 3c b8 c5 2e 13 45 04 3e 2e 6d 00 3f 94 88 b5 2e
       8.9912494e-11 0.12916975 0.50166595 8.255188e-11
0003b0 e5 db d4 2e 1b 08 42 3e 4c 85 25 3d c6 9c 0e 3e
       9.679705e-11 0.18948404 0.040410325 0.13926992
0003c0 3a 35 aa 3b bd 26 3d 39 f0 36 1d 2f 6d 32 fa 2e
       0.0051943334 0.00018038876 1.4298585e-10 1.1377641e-10
0003d0 a3 32 2e 3f 27 58 10 2f a0 40 29 2f ac a6 02 3e
       0.68046016 1.3128042e-10 1.539342e-10 0.12758893
0003e0 e3 74 1b 2f d4 0d 3f 3e 6a 0f ca 3b 33 c0 f2 2e
       1.4138694e-10 0.18657619 0.0061663883 1.1039027e-10
0003f0 55 40 41 3f 9a 69 d9 2e e1 00 15 3e 67 a5 ec 3c
       0.7548879 9.886776e-11 0.14551117 0.028887464
